…
l":"https://lh3.googleusercontent.com/a-/AAuE7mA_Zx87g1QjfhGhxHyuAvGSxcVcEeJccjBbwZo2SA=s64","userId":"07607570158647248520"}},"colab":{"base_uri":"https://localhost:8080/","height":1000}},"source":["!./darknet detector train \"/content/drive/My Drive/IURobotics/obj.data\" \"/content/drive/My Drive/IURobotics/yolo-obj.cfg\" \"/content/drive/My Drive/IURobotics/darknet19_448.conv.23\" -dont_show -map"],"execution_count":4,"outputs":[{"output_type":"stream","text":[" Prepare additional network for mAP calculation...\n","layer     filters    size              input                output\n","   0 conv     32  3 x 3 / 1   416 x 416 x   3   ->   416 x 416 x  32 0.299 BF\n","   1 max          2 x 2 / 2   416 x 416 x  32   ->   208 x 208 x  32 0.006 BF\n","   2 conv     64  3 x 3 / 1   208 x 208 x  32   ->   208 x 208 x  64 1.595 BF\n","   3 max          2 x 2 / 2   208 x 208 x  64   ->   104 x 104 x  64 0.003 BF\n","   4 conv    128  3 x 3 / 1   104 x 104 x  64   ->   104 x 104 x 128 1.595 BF\n","   5 conv     64  1 x 1 / 1   104 x 104 x 128   ->   104 x 104 x  64 0.177 BF\n","   6 conv    128  3 x 3 / 1   104 x 104 x  64   ->   104 x 104 x 128 1.595 BF\n","   7 max          2 x 2 / 2   104 x 104 x 128   ->    52 x  52 x 128 0.001 BF\n","   8 conv    256  3 x 3 / 1    52 x  52 x 128   ->    52 x  52 x 256 1.595 BF\n","   9 conv    128  1 x 1 / 1    52 x  52 x 256   ->    52 x  52 x 128 0.177 BF\n","  10 conv    256  3 x 3 / 1    52 x  52 x 128   ->    52 x  52 x 256 1.595 BF\n","  11 max          2 x 2 / 2    52 x  52 x 256   ->    26 x  26 x 256 0.001 BF\n","  12 conv    512  3 x 3 / 1    26 x  26 x 256   ->    26 x  26 x 512 1.595 BF\n","  13 conv    256  1 x 1 / 1    26 x  26 x 512   ->    26 x  26 x 256 0.177 BF\n","  14 conv    512  3 x 3 / 1    26 x  26 x 256   ->    26 x  26 x 512 1.595 BF\n","  15 conv    256  1 x 1 / 1    26 x  26 x 512   ->    26 x  26 x 256 0.177 BF\n","  16 conv    512  3 x 3 / 1    26 x  26 x 256   ->    26 x  26 x 512 1.595 BF\n","  17 max          2 x 2 / 2    26 x  26 x 512   ->    13 x  13 x 512 0.000 BF\n","  18 conv   1024  3 x 3 / 1    13 x  13 x 512   ->    13 x  13 x1024 1.595 BF\n","  19 conv    512  1 x 1 / 1    13 x  13 x1024   ->    13 x  13 x 512 0.177 BF\n","  20 conv   1024  3 x 3 / 1    13 x  13 x 512   ->    13 x  13 x1024 1.595 BF\n","  21 conv    512  1 x 1 / 1    13 x  13 x1024   ->    13 x  13 x 512 0.177 BF\n","  22 conv   1024  3 x 3 / 1    13 x  13 x 512   ->    13 x  13 x1024 1.595 BF\n","  23 conv   1024  3 x 3 / 1    13 x  13 x1024   ->    13 x  13 x1024 3.190 BF\n","  24 conv   1024  3 x 3 / 1    13 x  13 x1024   ->    13 x  13 x1024 3.190 BF\n","  25 route  16\n","  26 conv     64  1 x 1 / 1    26 x  26 x 512   ->    26 x  26 x  64 0.044 BF\n","  27 reorg              / 2    26 x  26 x  64   ->    13 x  13 x 256\n","  28 route  27 24\n","  29 conv   1024  3 x 3 / 1    13 x  13 x1280   ->    13 x  13 x1024 3.987 BF\n","  30 conv     30  1 x 1 / 1    13 x  13 x1024   ->    13 x  13 x  30 0.010 BF\n","  31 detection\n","mask_scale: Using default '1.000000'\n","Total BFLOPS 29.338 \n"," Allocate additional workspace_size = 131.08 MB \n","yolo-obj\n","layer     filters    size              input                output\n","   0 conv     32  3 x 3 / 1   416 x 416 x   3   ->   416 x 416 x  32 0.299 BF\n","   1 max          2 x 2 / 2   416 x 416 x  32   ->   208 x 208 x  32 0.006 BF\n","   2 conv     64  3 x 3 / 1   208 x 208 x  32   ->   208 x 208 x  64 1.595 BF\n","   3 max          2 x 2 / 2   208 x 208 x  64   ->   104 x 104 x  64 0.003 BF\n","   4 conv    128  3 x 3 / 1   104 x 104 x  64   ->   104 x 104 x 128 1.595 BF\n","   5 conv     64  1 x 1 / 1   104 x 104 x 128   ->   104 x 104 x  64 0.177 BF\n","   6 conv    128  3 x 3 / 1   104 x 104 x  64   ->   104 x 104 x 128 1.595 BF\n","   7 max          2 x 2 / 2   104 x 104 x 128   ->    52 x  52 x 128 0.001 BF\n","   8 conv    256  3 x 3 / 1    52 x  52 x 128   ->    52 x  52 x 256 1.595 BF\n","   9 conv    128  1 x 1 / 1    52 x  52 x 256   ->    52 x  52 x 128 0.177 BF\n","  10 conv    256  3 x 3 / 1    52 x  52 x 128   ->    52 x  52 x 256 1.595 BF\n","  11 max          2 x 2 / 2    52 x  52 x 256   ->    26 x  26 x 256 0.001 BF\n","  12 conv    512  3 x 3 / 1    26 x  26 x 256   ->    26 x  26 x 512 1.595 BF\n","  13 conv    256  1 x 1 / 1    26 x  26 x 512   ->    26 x  26 x 256 0.177 BF\n","  14 conv    512  3 x 3 / 1    26 x  26 x 256   ->    26 x  26 x 512 1.595 BF\n","  15 conv    256  1 x 1 / 1    26 x  26 x 512   ->    26 x  26 x 256 0.177 BF\n","  16 conv    512  3 x 3 / 1    26 x  26 x 256   ->    26 x  26 x 512 1.595 BF\n","  17 max          2 x 2 / 2    26 x  26 x 512   ->    13 x  13 x 512 0.000 BF\n","  18 conv   1024  3 x 3 / 1    13 x  13 x 512   ->    13 x  13 x1024 1.595 BF\n","  19 conv    512  1 x 1 / 1    13 x  13 x1024   ->    13 x  13 x 512 0.177 BF\n","  20 conv   1024  3 x 3 / 1    13 x  13 x 512   ->    13 x  13 x1024 1.595 BF\n","  21 conv    512  1 x 1 / 1    13 x  13 x1024   ->    13 x  13 x 512 0.177 BF\n","  22 conv   1024  3 x 3 / 1    13 x  13 x 512   ->    13 x  13 x1024 1.595 BF\n","  23 conv   1024  3 x 3 / 1    13 x  13 x1024   ->    13 x  13 x1024 3.190 BF\n","  24 conv   1024  3 x 3 / 1    13 x  13 x1024   ->    13 x  13 x1024 3.190 BF\n","  25 route  16\n","  26 conv     64  1 x 1 / 1    26 x  26 x 512   ->    26 x  26 x  64 0.044 BF\n","  27 reorg              / 2    26 x  26 x  64   ->    13 x  13 x 256\n","  28 route  27 24\n","  29 conv   1024  3 x 3 / 1    13 x  13 x1280   ->    13 x  13 x1024 3.987 BF\n","  30 conv     30  1 x 1 / 1    13 x  13 x1024   ->    13 x  13 x  30 0.010 BF\n","  31 detection\n","mask_scale: Using default '1.000000'\n","Total BFLOPS 29.338 \n"," Allocate additional workspace_size = 131.08 MB \n","Loading weights from /content/drive/My Drive/IURobotics/darknet19_448.conv.23...\n"," seen 32 \n","Done!\n","Learning Rate: 0.001, Momentum: 0.9, Decay: 0.0005\n","Resizing\n","608 x 608 \n"," try to allocat
…
ot load image data/labels/115_7.png\n","Cannot load image data/labels/116_7.png\n","Cannot load image data/labels/117_7.png\n","Cannot load image data/labels/118_7.png\n","Cannot load image data/labels/119_7.png\n","Cannot load image data/labels/120_7.png\n","Cannot load image data/labels/121_7.png\n","Cannot load image data/labels/122_7.png\n","Cannot load image data/labels/123_7.png\n","Cannot load image data/labels/124_7.png\n","Cannot load image data/labels/125_7.png\n","Cannot load image data/labels/126_7.png\n","layer     filters    size              input                output\n","   0 conv     32  3 x 3 / 1   416 x 416 x   3   ->   416 x 416 x  32 0.299 BF\n","   1 max          2 x 2 / 2   416 x 416 x  32   ->   208 x 208 x  32 0.006 BF\n","   2 conv     64  3 x 3 / 1   208 x 208 x  32   ->   208 x 208 x  64 1.595 BF\n","   3 max          2 x 2 / 2   208 x 208 x  64   ->   104 x 104 x  64 0.003 BF\n","   4 conv    128  3 x 3 / 1   104 x 104 x  64   ->   104 x 104 x 128 1.595 BF\n","   5 conv     64  1 x 1 / 1   104 x 104 x 128   ->   104 x 104 x  64 0.177 BF\n","   6 conv    128  3 x 3 / 1   104 x 104 x  64   ->   104 x 104 x 128 1.595 BF\n","   7 max          2 x 2 / 2   104 x 104 x 128   ->    52 x  52 x 128 0.001 BF\n","   8 conv    256  3 x 3 / 1    52 x  52 x 128   ->    52 x  52 x 256 1.595 BF\n","   9 conv    128  1 x 1 / 1    52 x  52 x 256   ->    52 x  52 x 128 0.177 BF\n","  10 conv    256  3 x 3 / 1    52 x  52 x 128   ->    52 x  52 x 256 1.595 BF\n","  11 max          2 x 2 / 2    52 x  52 x 256   ->    26 x  26 x 256 0.001 BF\n","  12 conv    512  3 x 3 / 1    26 x  26 x 256   ->    26 x  26 x 512 1.595 BF\n","  13 conv    256  1 x 1 / 1    26 x  26 x 512   ->    26 x  26 x 256 0.177 BF\n","  14 conv    512  3 x 3 / 1    26 x  26 x 256   ->    26 x  26 x 512 1.595 BF\n","  15 conv    256  1 x 1 / 1    26 x  26 x 512   ->    26 x  26 x 256 0.177 BF\n","  16 conv    512  3 x 3 / 1    26 x  26 x 256   ->    26 x  26 x 512 1.595 BF\n","  17 max          2 x 2 / 2    26 x  26 x 512   ->    13 x  13 x 512 0.000 BF\n","  18 conv   1024  3 x 3 / 1    13 x  13 x 512   ->    13 x  13 x1024 1.595 BF\n","  19 conv    512  1 x 1 / 1    13 x  13 x1024   ->    13 x  13 x 512 0.177 BF\n","  20 conv   1024  3 x 3 / 1    13 x  13 x 512   ->    13 x  13 x1024 1.595 BF\n","  21 conv    512  1 x 1 / 1    13 x  13 x1024   ->    13 x  13 x 512 0.177 BF\n","  22 conv   1024  3 x 3 / 1    13 x  13 x 512   ->    13 x  13 x1024 1.595 BF\n","  23 conv   1024  3 x 3 / 1    13 x  13 x1024   ->    13 x  13 x1024 3.190 BF\n","  24 conv   1024  3 x 3 / 1    13 x  13 x1024   ->    13 x  13 x1024 3.190 BF\n","  25 route  16\n","  26 conv     64  1 x 1 / 1    26 x  26 x 512   ->    26 x  26 x  64 0.044 BF\n","  27 reorg              / 2    26 x  26 x  64   ->    13 x  13 x 256\n","  28 route  27 24\n","  29 conv   1024  3 x 3 / 1    13 x  13 x1280   ->    13 x  13 x1024 3.987 BF\n","  30 conv     30  1 x 1 / 1    13 x  13 x1024   ->    13 x  13 x  30 0.010 BF\n","  31 detection\n","mask_scale: Using default '1.000000'\n","Total BFLOPS 29.338 \n"," Allocate additional workspace_size = 131.08 MB \n","Loading weights from backup/yolo-obj_1000.weights...\n"," seen 64 \n","Done!\n","img/501.jpg: Predicted in 9.112000 milli-seconds.\n","monster: 86%\n","Unable to init server: Could not connect: Connection re
…
